…
": "conv1", "id": 4798209776, "class_name": "Conv2d(3, 16, kernel_size=(3, 3), stride=(2, 2), padding=(1, 1))", "parameters": [["weight", [16, 3, 3, 3]], ["bias", [16]]], "output_shape": [[64, 16, 16, 16]], "num_parameters": [432, 16]}, {"name": "hswish", "id": 4798210000, "class_name": "Hswish()", "parameters": [], "output_shape": [[64, 16, 16, 16]], "num_parameters": []}, {"name": "relu", "id": 4798284128, "class_name": "ReLU()", "parameters": [], "output_shape": [[64, 16, 16, 16]], "num_parameters": []}, {"name": "fuse1", "id": 4798209832, "class_name": "FuseBlock(\n  (NL): ReLU()\n  (conv1): Conv2d(16, 16, kernel_size=(1, 1), stride=(1, 1))\n  (bn1): BatchNorm2d(16, eps=1e-05, momentum=0.1, affine=True, track_running_stats=True)\n  (conv2): Conv2d(16, 16, kernel_size=(1, 3), stride=(2,), padding=(0, 1), groups=16)\n  (bn2): BatchNorm2d(16, eps=1e-05, momentum=0.1, affine=True, track_running_stats=True)\n  (conv3): Conv2d(16, 16, kernel_size=(3, 1), stride=(2,), padding=(1, 0), groups=16)\n  (bn3): BatchNorm2d(16, eps=1e-05, momentum=0.1, affine=True, track_running_stats=True)\n  (hsigmoid): Hsigmoid()\n  (SE): SEModule(\n    (avg_pool): AdaptiveAvgPool2d(output_size=1)\n    (fc): Sequential(\n      (0): Linear(in_features=32, out_features=8, bias=False)\n      (1): ReLU(inplace=True)\n      (2): Linear(in_features=8, out_features=32, bias=False)\n      (3): Hsigmoid()\n    )\n  )\n  (conv4): Conv2d(32, 16, kernel_size=(1, 1), stride=(1, 1))\n  (bn4): BatchNorm2d(16, eps=1e-05, momentum=0.1, affine=True, track_running_stats=True)\n)", "parameters": [["conv1.weight", [16, 16, 1, 1]], ["conv1.bias", [16]], ["bn1.weight", [16]], ["bn1.bias", [16]], ["conv2.weight", [16, 1, 1, 3]], ["conv2.bias", [16]], ["bn2.weight", [16]], ["bn2.bias", [16]], ["conv3.weight", [16, 1, 3, 1]], ["conv3.bias", [16]], ["bn3.weight", [16]], ["bn3.bias", [16]], ["SE.fc.0.weight", [8, 32]], ["SE.fc.2.weight", [32, 8]], ["conv4.weight", [16, 32, 1, 1]], ["conv4.bias", [16]], ["bn4.weight", [16]], ["bn4.bias", [16]]], "output_shape": [[64, 16, 8, 8]], "num_parameters": [256, 16, 16, 16, 48, 16, 16, 16, 48, 16, 16, 16, 256, 256, 512, 16, 16, 16]}, {"name": "fuse2", "id": 4798207648, "class_name": "FuseBlock(\n  (NL): ReLU()\n  (conv1): Conv2d(16, 72, kernel_size=(1, 1), stride=(1, 1))\n  (bn1): BatchNorm2d(72, eps=1e-05, momentum=0.1, affine=True, track_running_stats=True)\n  (conv2): Conv2d(72, 72, kernel_size=(1, 3), stride=(2,), padding=(0, 1), groups=72)\n  (bn2): BatchNorm2d(72, eps=1e-05, momentum=0.1, affine=True, track_running_stats=True)\n  (conv3): Conv2d(72, 72, kernel_size=(3, 1), stride=(2,), padding=(1, 0), groups=72)\n  (bn3): BatchNorm2d(72, eps=1e-05, momentum=0.1, affine=True, track_running_stats=True)\n  (hsigmoid): Hsigmoid()\n  (SE): SEModule(\n    (avg_pool): AdaptiveAvgPool2d(output_size=1)\n    (fc): Sequential(\n      (0): Linear(in_features=144, out_features=36, bias=False)\n      (1): ReLU(inplace=True)\n      (2): Linear(in_features=36, out_features=144, bias=False)\n      (3): Hsigmoid()\n    )\n  )\n  (conv4): Conv2d(144, 24, kernel_size=(1, 1), stride=(1, 1))\n  (bn4): BatchNorm2d(24, eps=1e-05, momentum=0.1, affine=True, track_running_stats=True)\n)", "parameters": [["conv1.weight", [72, 16, 1, 1]], ["conv1.bias", [72]], ["bn1.weight", [72]], ["bn1.bias", [72]], ["conv2.weight", [72, 1, 1, 3]], ["conv2.bias", [72]], ["bn2.weight", [72]], ["bn2.bias", [72]], ["conv3.weight", [72, 1, 3, 1]], ["conv3.bias", [72]], ["bn3.weight", [72]], ["bn3.bias", [72]], ["SE.fc.0.weight", [36, 144]], ["SE.fc.2.weight", [144, 36]], ["conv4.weight", [24, 144, 1, 1]], ["conv4.bias", [24]], ["bn4.weight", [24]], ["bn4.bias", [24]]], "output_shape": [[64, 24, 4, 4]], "num_parameters": [1152, 72, 72, 72, 216, 72, 72, 72, 216, 72, 72, 72, 5184, 5184, 3456, 24, 24, 24]}, {"name": "fuse3", "id": 4798285024, "class_name": "FuseBlock(\n  (NL): ReLU()\n  (conv1): Conv2d(24, 88, kernel_size=(1, 1), stride=(1, 1))\n  (bn1): BatchNorm2d(88, eps=1e-05, momentum=0.1, affine=True, track_running_stats=True)\n  (conv2): Conv2d(88, 88, kernel_size=(1, 3), stride=(1,), padding=(0, 1), groups=88)\n  (bn2): BatchNorm2d(88, eps=1e-05, momentum=0.1, affine=True, track_running_stats=True)\n  (conv3): Conv2d(88, 88, kernel_size=(3, 1), stride=(1,), padding=(1, 0), groups=88)\n  (bn3): BatchNorm2d(88, eps=1e-05, momentum=0.1, affine=True, track_running_stats=True)\n  (hsigmoid): Hsigmoid()\n  (SE): SEModule(\n    (avg_pool): AdaptiveAvgPool2d(output_size=1)\n    (fc): Sequential(\n      (0): Linear(in_features=176, out_features=44, bias=False)\n      (1): ReLU(inplace=True)\n      (2): Linear(in_features=44, out_features=176, bias=False)\n      (3): Hsigmoid()\n    )\n  )\n  (conv4): Conv2d(176, 24, kernel_size=(1, 1), stride=(1, 1))\n  (bn4): BatchNorm2d(24, eps=1e-05, momentum=0.1, affine=True, track_running_stats=True)\n)", "parameters": [["conv1.weight", [88, 24, 1, 1]], ["conv1.bias", [88]], ["bn1.weight", [88]], ["bn1.bias", [88]], ["conv2.weight", [88, 1, 1, 3]], ["conv2.bias", [88]], ["bn2.weight", [88]], ["bn2.bias", [88]], ["conv3.weight", [88, 1, 3, 1]], ["conv3.bias", [88]], ["bn3.weight", [88]], ["bn3.bias", [88]], ["SE.fc.0.weight", [44, 176]], ["SE.fc.2.weight", [176, 44]], ["conv4.weight", [24, 176, 1, 1]], ["conv4.bias", [24]], ["bn4.weight", [24]], ["bn4.bias", [24]]], "output_shape": [[64, 24, 4, 4]], "num_parameters": [2112, 88, 88, 88, 264, 88, 88, 88, 264, 88, 88, 88, 7744, 7744, 4224, 24, 24, 24]}, {"name": "fuse4", "id": 4798286200, "class_name": "FuseBlock(\n  (NL): Hswish()\n  (conv1): Conv2d(24, 96, kernel_size=(1, 1), stride=(1, 1))\n  (bn1): BatchNorm2d(96, eps=1e-05, momentum=0.1, affine=True, track_running_stats=True)\n  (conv2): Conv2d(96, 96, kernel_size=(1, 5), stride=(2,), padding=(0, 2), groups=96)\n  (bn2): BatchNorm2d(96, eps=1e-05, momentum=0.1, affine=True, track_running_stats=True)\n  (conv3): Conv2d(96, 96, kernel_size=(5, 1), stride=(2,), padding=(2, 0), groups=96)\n  (bn3): BatchNorm2d(96, eps=1e-05, momentum=0.1, affine=True, track_running_stats=True)\n  (hsigmoid): Hsigmoid()\n  (SE): SEModule(\n    (avg_pool): AdaptiveAvgPool2d(output_size=1)\n    (fc): Sequential(\n      (0): Linear(in_features=192, out_features=48, bias=False)\n      (1): ReLU(inplace=True)\n      (2): Linear(in_features=48, out_features=192, bias=False)\n      (3): Hsigmoid()\n    )\n  )\n  (conv4): Conv2d(192, 40, kernel_size=(1, 1), stride=(1, 1))\n  (bn4): BatchNorm2d(40, eps=1e-05, momentum=0.1, affine=True, track_running_stats=True)\n)", "parameters": [["conv1.weight", [96, 24, 1, 1]], ["conv1.bias", [96]], ["bn1.weight", [96]], ["bn1.bias", [96]], ["conv2.weight", [96, 1, 1, 5]], ["conv2.bias", [96]], ["bn2.weight", [96]], ["bn2.bias", [96]], ["conv3.weight", [96, 1, 5, 1]], ["conv3.bias", [96]], ["bn3.weight", [96]], ["bn3.bias", [96]], ["SE.fc.0.weight", [48, 192]], ["SE.fc.2.weight", [192, 48]], ["conv4.weight", [40, 192, 1, 1]], ["conv4.bias", [40]], ["bn4.weight", [40]], ["bn4.bias", [40]]], "output_shape": [[64, 40, 2, 2]], "num_parameters": [2304, 96, 96, 96, 480, 96, 96, 96, 480, 96, 96, 96, 9216, 9216, 7680, 40, 40, 40]}, {"name": "fuse5", "id": 4798287376, "class_name": "FuseBlock(\n  (NL): Hswish()\n  (conv1): Conv2d(40, 240, kernel_size=(1, 1), stride=(1, 1))\n  (bn1): BatchNorm2d(240, eps=1e-05, momentum=0.1, affine=True, track_running_stats=True)\n  (conv2): Conv2d(240, 240, kernel_size=(1, 5), stride=(1,), padding=(0, 2), groups=240)\n  (bn2): BatchNorm2d(240, eps=1e-05, momentum=0.1, affine=True, track_running_stats=True)\n  (conv3): Conv2d(240, 240, kernel_size=(5, 1), stride=(1,), padding=(2, 0), groups=240)\n  (bn3): BatchNorm2d(240, eps=1e-05, momentum=0.1, affine=True, track_running_stats=True)\n  (hsigmoid): Hsigmoid()\n  (SE): SEModule(\n    (avg_pool): AdaptiveAvgPool2d(output_size=1)\n    (fc): Sequential(\n      (0): Linear(in_features=480, out_features=120, bias=False)\n      (1): ReLU(inplace=True)\n      (2): Linear(in_features=120, out_features=480, bias=False)\n      (3): Hsigmoid()\n    )\n  )\n  (conv4): Conv2d(480, 40, kernel_size=(1, 1), stride=(1, 1))\n  (bn4): BatchNorm2d(40, eps=1e-05, momentum=0.1, affine=True, track_running_stats=True)\n)", "parameters": [["conv1.weight", [240, 40, 1, 1]], ["conv1.bias", [240]], ["bn1.weight", [240]], ["bn1.bias", [240]], ["conv2.weight", [240, 1, 1, 5]], ["conv2.bias", [240]], ["bn2.weight", [240]], ["bn2.bias", [240]], ["conv3.weight", [240, 1, 5, 1]], ["conv3.bias", [240]], ["bn3.weight", [240]], ["bn3.bias", [240]], ["SE.fc.0.weight", [120, 480]], ["SE.fc.2.weight", [480, 120]], ["conv4.weight", [40, 480, 1, 1]], ["conv4.bias", [40]], ["bn4.weight", [40]], ["bn4.bias", [40]]], "output_shape": [[64, 40, 2, 2]], "num_parameters": [9600, 240, 240, 240, 1200, 240, 240, 240, 1200, 240, 240, 240, 57600, 57600, 19200, 40, 40, 40]}, {"name": "fuse6", "id": 4798550760, "class_name": "FuseBlock(\n  (NL): Hswish()\n  (conv1): Conv2d(40, 240, kernel_size=(1, 1), stride=(1, 1))\n  (bn1): BatchNorm2d(240, eps=1e-05, momentum=0.1, affine=True, track_running_stats=True)\n  (conv2): Conv2d(240, 240, kernel_size=(1, 5), stride=(1,), padding=(0, 2), groups=240)\n  (bn2): BatchNorm2d(240, eps=1e-05, momentum=0.1, affine=True, track_running_stats=True)\n  (conv3): Conv2d(240, 240, kernel_size=(5, 1), stride=(1,), padding=(2, 0), groups=240)\n  (bn3): BatchNorm2d(240, eps=1e-05, momentum=0.1, affine=True, track_running_stats=True)\n  (hsigmoid): Hsigmoid()\n  (SE): SEModule(\n    (avg_pool): AdaptiveAvgPool2d(output_size=1)\n    (fc): Sequential(\n      (0): Linear(in_features=480, out_features=120, bias=False)\n      (1): ReLU(inplace=True)\n      (2): Linear(in_features=120, out_features=480, bias=False)\n      (3): Hsigmoid()\n    )\n  )\n  (conv4): Conv2d(480, 40, kernel_size=(1, 1), stride=(1, 1))\n  (bn4): BatchNorm2d(40, eps=1e-05, momentum=0.1, affine=True, track_running_stats=True)\n)", "parameters": [["conv1.weight", [240, 40, 1, 1]], ["conv1.bias", [240]], ["bn1.weight", [240]], ["bn1.bias", [240]], ["conv2.weight", [240, 1, 1, 5]], ["conv2.bias", [240]], ["bn2.weight", [240]], ["bn2.bias", [240]], ["conv3.weight", [240, 1, 5, 1]], ["conv3.bias", [240]], ["bn3.weight", [240]], ["bn3.bias", [240]], ["SE.fc.0.weight", [120, 480]], ["SE.fc.2.weight", [480, 120]], ["conv4.weight", [40, 480, 1, 1]], ["conv4.bias", [40]], ["bn4.weight", [40]], ["bn4.bias", [40]]], "output_shape": [[64, 40, 2, 2]], "num_parameters": [9600, 240, 240, 240, 1200, 240, 240, 240, 1200, 240, 240, 240, 57600, 57600, 19200, 40, 40, 40]}, {"name": "fuse7", "id": 4798551936, "class_name": "FuseBlock(\n  (NL): Hswish()\n  (conv1): Conv2d(40, 120, kernel_size=(1, 1), stride=(1, 1))\n  (bn1): BatchNorm2d(120, eps=1e-05, momentum=0.1, affine=True, track_running_stats=True)\n  (conv2): Conv2d(120, 120, kernel_size=(1, 5), stride=(1,), padding=(0, 2), groups=120)\n  (bn2): BatchNorm2d(120, eps=1e-05, momentum=0.1, affine=True, track_running_stats=True)\n  (conv3): Conv2d(120, 120, kernel_size=(5, 1), stride=(1,), padding=(2, 0), groups=120)\n  (bn3): BatchNorm2d(120, eps=1e-05, momentum=0.1, affine=True, track_running_stats=True)\n  (hsigmoid): Hsigmoid()\n  (SE): SEModule(\n    (avg_pool): AdaptiveAvgPool2d(output_size=1)\n    (fc): Sequential(\n      (0): Linear(in_features=240, out_features=60, bias=False)\n      (1): ReLU(inplace=True)\n      (2): Linear(in_features=60, out_features=240, bias=False)\n      (3): Hsigmoid()\n    )\n  )\n  (conv4): Conv2d(240, 48, kernel_size=(1, 1), stride=(1, 1))\n  (bn4): BatchNorm2d(48, eps=1e-05, momentum=0.1, affine=True, track_running_stats=True)\n)", "parameters": [["conv1.weight", [120, 40, 1, 1]], ["conv1.bias", [120]], ["bn1.weight", [120]], ["bn1.bias", [120]], ["conv2.weight", [120, 1, 1, 5]], ["conv2.bias", [120]], ["bn2.weight", [120]], ["bn2.bias", [120]], ["conv3.weight", [120, 1, 5, 1]], ["conv3.bias", [120]], ["bn3.weight", [120]], ["bn3.bias", [120]], ["SE.fc.0.weight", [60, 240]], ["SE.fc.2.weight", [240, 60]], ["conv4.weight", [48, 240, 1, 1]], ["conv4.bias", [48]], ["bn4.weight", [48]], ["bn4.bias", [48]]], "output_shape": [[64, 48, 2, 2]], "num_parameters": [4800, 120, 120, 120, 600, 120, 120, 120, 600, 120, 120, 120, 14400, 14400, 11520, 48, 48, 48]}, {"name": "fuse8", "id": 4798553112, "class_name": "FuseBlock(\n  (NL): Hswish()\n  (conv1): Conv2d(48, 144, kernel_size=(1, 1), stride=(1, 1))\n  (bn1): BatchNorm2d(144, eps=1e-05, momentum=0.1, affine=True, track_running_stats=True)\n  (conv2): Conv2d(144, 144, kernel_size=(1, 5), stride=(1,), padding=(0, 2), groups=144)\n  (bn2): BatchNorm2d(144, eps=1e-05, momentum=0.1, affine=True, track_running_stats=True)\n  (conv3): Conv2d(144, 144, kernel_size=(5, 1), stride=(1,), padding=(2, 0), groups=144)\n  (bn3): BatchNorm2d(144, eps=1e-05, momentum=0.1, affine=True, track_running_stats=True)\n  (hsigmoid): Hsigmoid()\n  (SE): SEModule(\n    (avg_pool): AdaptiveAvgPool2d(output_size=1)\n    (fc): Sequential(\n      (0): Linear(in_features=288, out_features=72, bias=False)\n      (1): ReLU(inplace=True)\n      (2): Linear(in_features=72, out_features=288, bias=False)\n      (3): Hsigmoid()\n    )\n  )\n  (conv4): Conv2d(288, 48, kernel_size=(1, 1), stride=(1, 1))\n  (bn4): BatchNorm2d(48, eps=1e-05, momentum=0.1, affine=True, track_running_stats=True)\n)", "parameters": [["conv1.weight", [144, 48, 1, 1]], ["conv1.bias", [144]], ["bn1.weight", [144]], ["bn1.bias", [144]], ["conv2.weight", [144, 1, 1, 5]], ["conv2.bias", [144]], ["bn2.weight", [144]], ["bn2.bias", [144]], ["conv3.weight", [144, 1, 5, 1]], ["conv3.bias", [144]], ["bn3.weight", [144]], ["bn3.bias", [144]], ["SE.fc.0.weight", [72, 288]], ["SE.fc.2.weight", [288, 72]], ["conv4.weight", [48, 288, 1, 1]], ["conv4.bias", [48]], ["bn4.weight", [48]], ["bn4.bias", [48]]], "output_shape": [[64, 48, 2, 2]], "num_parameters": [6912, 144, 144, 144, 720, 144, 144, 144, 720, 144, 144, 144, 20736, 20736, 13824, 48, 48, 48]}, {"name": "fuse9", "id": 4798730480, "class_name": "FuseBlock(\n  (NL): Hswish()\n  (conv1): Conv2d(48, 288, kernel_size=(1, 1), stride=(1, 1))\n  (bn1): BatchNorm2d(288, eps=1e-05, momentum=0.1, affine=True, track_running_stats=True)\n  (conv2): Conv2d(288, 288, kernel_size=(1, 5), stride=(2,), padding=(0, 2), groups=288)\n  (bn2): BatchNorm2d(288, eps=1e-05, momentum=0.1, affine=True, track_running_stats=True)\n  (conv3): Conv2d(288, 288, kernel_size=(5, 1), stride=(2,), padding=(2, 0), groups=288)\n  (bn3): BatchNorm2d(288, eps=1e-05, momentum=0.1, affine=True, track_running_stats=True)\n  (hsigmoid): Hsigmoid()\n  (SE): SEModule(\n    (avg_pool): AdaptiveAvgPool2d(output_size=1)\n    (fc): Sequential(\n      (0): Linear(in_features=576, out_features=144, bias=False)\n      (1): ReLU(inplace=True)\n      (2): Linear(in_features=144, out_features=576, bias=False)\n      (3): Hsigmoid()\n    )\n  )\n  (conv4): Conv2d(576, 96, kernel_size=(1, 1), stride=(1, 1))\n  (bn4): BatchNorm2d(96, eps=1e-05, momentum=0.1, affine=True, track_running_stats=True)\n)", "parameters": [["conv1.weight", [288, 48, 1, 1]], ["conv1.bias", [288]], ["bn1.weight", [288]], ["bn1.bias", [288]], ["conv2.weight", [288, 1, 1, 5]], ["conv2.bias", [288]], ["bn2.weight", [288]], ["bn2.bias", [288]], ["conv3.weight", [288, 1, 5, 1]], ["conv3.bias", [288]], ["bn3.weight", [288]], ["bn3.bias", [288]], ["SE.fc.0.weight", [144, 576]], ["SE.fc.2.weight", [576, 144]], ["conv4.weight", [96, 576, 1, 1]], ["conv4.bias", [96]], ["bn4.weight", [96]], ["bn4.bias", [96]]], "output_shape": [[64, 96, 1, 1]], "num_parameters": [13824, 288, 288, 288, 1440, 288, 288, 288, 1440, 288, 288, 288, 82944, 82944, 55296, 96, 96, 96]}, {"name": "fuse10", "id": 4798731656, "class_name": "FuseBlock(\n  (NL): Hswish()\n  (conv1): Conv2d(96, 576, kernel_size=(1, 1), stride=(1, 1))\n  (bn1): BatchNorm2d(576, eps=1e-05, momentum=0.1, affine=True, track_running_stats=True)\n  (conv2): Conv2d(576, 576, kernel_size=(1, 5), stride=(1,), padding=(0, 2), groups=576)\n  (bn2): BatchNorm2d(576, eps=1e-05, momentum=0.1, affine=True, track_running_stats=True)\n  (conv3): Conv2d(576, 576, kernel_size=(5, 1), stride=(1,), padding=(2, 0), groups=576)\n  (bn3): BatchNorm2d(576, eps=1e-05, momentum=0.1, affine=True, track_running_stats=True)\n  (hsigmoid): Hsigmoid()\n  (SE): SEModule(\n    (avg_pool): AdaptiveAvgPool2d(output_size=1)\n    (fc): Sequential(\n      (0): Linear(in_features=1152, out_features=288, bias=False)\n      (1): ReLU(inplace=True)\n      (2): Linear(in_features=288, out_features=1152, bias=False)\n      (3): Hsigmoid()\n    )\n  )\n  (conv4): Conv2d(1152, 96, kernel_size=(1, 1), stride=(1, 1))\n  (bn4): BatchNorm2d(96, eps=1e-05, momentum=0.1, affine=True, track_running_stats=True)\n)", "parameters": [["conv1.weight", [576, 96, 1, 1]], ["conv1.bias", [576]], ["bn1.weight", [576]], ["bn1.bias", [576]], ["conv2.weight", [576, 1, 1, 5]], ["conv2.bias", [576]], ["bn2.weight", [576]], ["bn2.bias", [576]], ["conv3.weight", [576, 1, 5, 1]], ["conv3.bias", [576]], ["bn3.weight", [576]], ["bn3.bias", [576]], ["SE.fc.0.weight", [288, 1152]], ["SE.fc.2.weight", [1152, 288]], ["conv4.weight", [96, 1152, 1, 1]], ["conv4.bias", [96]], ["bn4.weight", [96]], ["bn4.bias", [96]]], "output_shape": [[64, 96, 1, 1]], "num_parameters": [55296, 576, 576, 576, 2880, 576, 576, 576, 2880, 576, 576, 576, 331776, 331776, 110592, 96, 96, 96]}, {"name": "fuse11", "id": 4798732832, "class_name": "FuseBlock(\n  (NL): Hswish()\n  (conv1): Conv2d(96, 576, kernel_size=(1, 1), stride=(1, 1))\n  (bn1): BatchNorm2d(576, eps=1e-05, momentum=0.1, affine=True, track_running_stats=True)\n  (conv2): Conv2d(576, 576, kernel_size=(1, 5), stride=(1,), padding=(0, 2), groups=576)\n  (bn2): BatchNorm2d(576, eps=1e-05, momentum=0.1, affine=True, track_running_stats=True)\n  (conv3): Conv2d(576, 576, kernel_size=(5, 1), stride=(1,), padding=(2, 0), groups=576)\n  (bn3): BatchNorm2d(576, eps=1e-05, momentum=0.1, affine=True, track_running_stats=True)\n  (hsigmoid): Hsigmoid()\n  (SE): SEModule(\n    (avg_pool): AdaptiveAvgPool2d(output_size=1)\n    (fc): Sequential(\n      (0): Linear(in_features=1152, out_features=288, bias=False)\n      (1): ReLU(inplace=True)\n      (2): Linear(in_features=288, out_features=1152, bias=False)\n      (3): Hsigmoid()\n    )\n  )\n  (conv4): Conv2d(1152, 96, kernel_size=(1, 1), stride=(1, 1))\n  (bn4): BatchNorm2d(96, eps=1e-05, momentum=0.1, affine=True, track_running_stats=True)\n)", "parameters": [["conv1.weight", [576, 96, 1, 1]], ["conv1.bias", [576]], ["bn1.weight", [576]], ["bn1.bias", [576]], ["conv2.weight", [576, 1, 1, 5]], ["conv2.bias", [576]], ["bn2.weight", [576]], ["bn2.bias", [576]], ["conv3.weight", [576, 1, 5, 1]], ["conv3.bias", [576]], ["bn3.weight", [576]], ["bn3.bias", [576]], ["SE.fc.
…
